CNN/modelos/modelo_sin_3.onnx (onnx, 291766 bytes, 39 tensors)

414_quantized u1 [32, 1, 3, 3]
000000 a2 9c 98 9b 8c 8d 95 8a 91 9c a9 9b ad ad a5 ac
       162 156 152 155 140 141 149 138 145 156 169 155 173 173 165 172
000010 ac a9 9f c7 b6 76 c1 d3 8b 95 cb e5 88 7f bf 0f
       172 169 159 199 182 118 193 211 139 149 203 229 136 127 191 15
000020 c6 78 84 f1 8c 8a 99 7d 60 7b 8c 6d 94 ae 76 b6
       198 120 132 241 140 138 153 125 96 123 140 109 148 174 118 182
000030 bc 65 c7 af 86 b5 a8 a9 a5 ac b3 ac a9 b1 ae b1
       188 101 199 175 134 181 168 169 165 172 179 172 169 177 174 177
000040 c0 4d c1 f5 00 ab ff 30 ab b4 ab b7 c6 b2 b0 b6
       192 77 193 245 0 171 255 48 171 180 171 183 198 178 176 182
000050 ac a8 ad aa aa b4 b2 a5 aa ab 77 94 b5 75 71 bc
       172 168 173 170 170 180 178 165 170 171 119 148 181 117 113 188
000060 9d 7a b2 a8 ae aa ac b0 ab a9 ad a9 84 b9 a1 62
       157 122 178 168 174 170 172 176 171 169 173 169 132 185 161 98
000070 da 9e 89 c6 a3 7d df 93 79 f3 6e 87 c1 85 a7 a8
       218 158 137 198 163 125 223 147 121 243 110 135 193 133 167 168
000080 a1 9b 92 a0 91 7d 89 88 70 c4 70 91 e6 89 ca c3
       161 155 146 160 145 125 137 136 112 196 112 145 230 137 202 195
000090 a2 a2 a2 a2 a2 a2 a2 a2 a2 9a 89 90 97 80 89 9e
       162 162 162 162 162 162 162 162 162 154 137 144 151 128 137 158
0000a0 95 99 9f 70 78 9e 73 7b b3 b7 b7 a6 a8 aa a9 b3
       149 153 159 112 120 158 115 123 179 183 183 166 168 170 169 179
0000b0 b1 a9 b0 ac c5 c9 95 e8 92 6d b6 74 85 bd 6c 8a
       177 169 176 172 197 201 149 232 146 109 182 116 133 189 108 138
0000c0 e7 a6 69 c4 c4 8a ab 44 e5 d4 24 de ce 6f a8 a3
       231 166 105 196 196 138 171 68 229 212 36 222 206 111 168 163
0000d0 a7 a8 aa b4 b0 a9 b0 ab a0 9f a0 9d 98 9c 9e 97
       167 168 170 180 176 169 176 171 160 159 160 157 152 156 158 151
0000e0 9b d6 e2 d1 76 4f 72 a3 a0 a3 9f 9b 99 96 8b 8e
       155 214 226 209 118 79 114 163 160 163 159 155 153 150 139 142
0000f0 98 8d 97 7a 7a 86 7b 68 70 99 91 93 a9 9e a5 7d
       152 141 151 122 122 134 123 104 112 153 145 147 169 158 165 125

418_quantized u1 [32, 32, 1, 1]
000000 6f 6c 66 75 6b 6d 7d 6b 5b 76 67 71 6c 6f 6c 72
       111 108 102 117 107 109 125 107 91 118 103 113 108 111 108 114
000010 6b 61 69 6f 70 65 69 60 57 69 64 64 6b 74 63 56
       107 97 105 111 112 101 105 96 87 105 100 100 107 116 99 86
000020 6a 6b 68 6e 74 69 6e 6e 6f 77 6b 70 69 69 5c 68
       106 107 104 110 116 105 110 110 111 119 107 112 105 105 92 104
000030 6b 62 66 6b 71 68 69 74 65 71 5f 63 74 71 6b 59
       107 98 102 107 113 104 105 116 101 113 95 99 116 113 107 89
000040 84 6b 6f 68 36 87 3c 6d 8e 75 72 36 81 88 84 5e
       132 107 111 104 54 135 60 109 142 117 114 54 129 136 132 94
000050 6a 61 18 8c 6e 67 70 58 8b 6d 73 50 4d 7a 78 6f
       106 97 24 140 110 103 112 88 139 109 115 80 77 122 120 111
000060 74 6b 68 66 69 71 40 6b 75 5e 65 57 71 73 58 6a
       116 107 104 102 105 113 64 107 117 94 101 87 113 115 88 106
000070 6b 68 5e 74 6d 73 73 73 87 72 82 68 77 6d 72 6e
       107 104 94 116 109 115 115 115 135 114 130 104 119 109 114 110
000080 36 6d 6b 72 53 50 4d 6f 92 86 59 49 55 40 a5 6d
       54 109 107 114 83 80 77 111 146 134 89 73 85 64 165 109
000090 6b 77 36 3d 80 4e 45 53 84 68 72 33 69 83 63 7f
       107 119 54 61 128 78 69 83 132 104 114 51 105 131 99 127
0000a0 62 6b 79 5a 38 92 4e 7f 6e 6e 7c 55 8d 88 76 66
       98 107 121 90 56 146 78 127 110 110 124 85 141 136 118 102
0000b0 6a 69 75 84 62 8b 93 51 80 47 5a 67 46 49 85 6f
       106 105 117 132 98 139 147 81 128 71 90 103 70 73 133 111
0000c0 9c 6a 69 6d 6d 47 5a 40 68 7c 73 3b 5e 67 65 14
       156 106 105 109 109 71 90 64 104 124 115 59 94 103 101 20
0000d0 6a 72 7b 56 7d 6e 55 73 94 61 4a 6d 69 aa 61 4f
       106 114 123 86 125 110 85 115 148 97 74 109 105 170 97 79
0000e0 58 69 66 53 92 60 00 b6 6b 77 7c 0b 4e 54 5f 2a
       88 105 102 83 146 96 0 182 107 119 124 11 78 84 95 42
0000f0 6c 62 22 68 9b 5d 62 89 ff 82 41 5f 9a 71 7e 3b
       108 98 34 104 155 93 98 137 255 130 65 95 154 113 126 59

422_quantized u1 [32, 1, 3, 3]
000000 6b 52 a8 67 a2 b7 80 8b 45 6d 6a 6b 7c 00 66 7d
       107 82 168 103 162 183 128 139 69 109 106 107 124 0 102 125
000010 ff 89 79 6c 76 7c 98 87 73 62 6e 74 6b 6e 69 57
       255 137 121 108 118 124 152 135 115 98 110 116 107 110 105 87
000020 56 76 b4 a4 6f 97 8a 7b 63 81 78 62 76 7c 70 72
       86 118 180 164 111 151 138 123 99 129 120 98 118 124 112 114
000030 7c 93 8e 73 84 6e 78 65 83 77 54 a4 73 73 7c 71
       124 147 142 115 132 110 120 101 131 119 84 164 115 115 124 113
000040 7a 6d 6a b5 5e 75 70 68 77 71 69 6e 53 a6 70 71
       122 109 106 181 94 117 112 104 119 113 105 110 83 166 112 113
000050 91 6d 73 6f 74 b7 95 6e 76 69 70 66 74 78 52 4e
       145 109 115 111 116 183 149 110 118 105 112 102 116 120 82 78
000060 80 79 7b 75 68 6a 75 96 81 79 8f 7f 69 5d 93 54
       128 121 123 117 104 106 117 150 129 121 143 127 105 93 147 84
000070 88 b9 75 78 7c 79 77 84 72 94 88 73 8e 70 78 79
       136 185 117 120 124 121 119 132 114 148 136 115 142 112 120 121
000080 73 6c 8f 75 7a 83 87 7c 5e 77 89 61 7f 7e 74 7d
       115 108 143 117 122 131 135 124 94 119 137 97 127 126 116 125
000090 73 5b 74 70 37 6e 7c 73 7b 87 65 60 96 8b 4f 74
       115 91 116 112 55 110 124 115 123 135 101 96 150 139 79 116
0000a0 9e 6d 78 44 84 7f 9b 45 78 94 81 73 97 8a 73 56
       158 109 120 68 132 127 155 69 120 148 129 115 151 138 115 86
0000b0 7a 78 7a 67 7f 84 65 8d 86 5b 7d 57 7c 7a 69 7d
       122 120 122 103 127 132 101 141 134 91 125 87 124 122 105 125
0000c0 85 1b d2 7a 49 bf 60 5b 87 6f a6 7b 82 86 65 7f
       133 27 210 122 73 191 96 91 135 111 166 123 130 134 101 127
0000d0 99 84 79 7b 85 74 18 6c 71 7f 68 86 66 56 78 5f
       153 132 121 123 133 116 24 108 113 127 104 134 102 86 120 95
0000e0 74 66 6d 96 7c 52 74 86 8a 61 72 7f 6e 72 96 77
       116 102 109 150 124 82 116 134 138 97 114 127 110 114 150 119
0000f0 70 89 76 72 73 5f 6e b8 6e 6c 94 7a 79 cf 84 78
       112 137 118 114 115 95 110 184 110 108 148 122 121 207 132 120

426_quantized u1 [32, 32, 1, 1]
000000 8e 8c 7c 86 71 75 8e 7c 8a 87 7d 82 83 8b 82 86
       142 140 124 134 113 117 142 124 138 135 125 130 131 139 130 134
000010 7f 82 83 84 94 83 8e 88 82 88 7c 8a 7b 89 8a 8c
       127 130 131 132 148 131 142 136 130 136 124 138 123 137 138 140
000020 67 81 84 7f 8d 74 91 99 84 43 c2 6c 60 80 c8 67
       103 129 132 127 141 116 145 153 132 67 194 108 96 128 200 103
000030 53 87 d0 b1 66 99 99 91 7b be 7d ca 77 9a 5f 76
       83 135 208 177 102 153 153 145 123 190 125 202 119 154 95 118
000040 38 3e e8 e4 89 a2 90 8d 63 59 7a 58 6b 8f 66 3a
       56 62 232 228 137 162 144 141 99 89 122 88 107 143 102 58
000050 4c 72 81 73 7d 80 86 4b 91 6a bf 98 bb 82 46 79
       76 114 129 115 125 128 134 75 145 106 191 152 187 130 70 121
000060 77 66 75 7c 86 ab 92 b9 8f 6c 5f 8a 95 94 80 b7
       119 102 117 124 134 171 146 185 143 108 95 138 149 148 128 183
000070 37 93 8f 83 94 98 75 57 7b 6d 7d 8f 7a 69 72 86
       55 147 143 131 148 152 117 87 123 109 125 143 122 105 114 134
000080 86 77 87 72 90 84 79 94 95 83 73 77 84 9c 8e 82
       134 119 135 114 144 132 121 148 149 131 115 119 132 156 142 130
000090 78 7e 81 87 8c 7f 9e 68 8c 76 94 86 84 7e 97 87
       120 126 129 135 140 127 158 104 140 118 148 134 132 126 151 135
0000a0 61 66 94 77 9e a8 7c 9c 70 5a 88 76 96 73 93 87
       97 102 148 119 158 168 124 156 112 90 136 118 150 115 147 135
0000b0 77 81 93 8a 65 a0 64 70 8b 80 a3 86 92 74 6c 6a
       119 129 147 138 101 160 100 112 139 128 163 134 146 116 108 106
0000c0 73 63 93 97 b3 a8 79 ab 95 98 69 74 7f 92 50 74
       115 99 147 151 179 168 121 171 149 152 105 116 127 146 80 116
0000d0 78 9e 83 49 74 74 85 6a 87 6a d0 7f a1 69 73 7f
       120 158 131 73 116 116 133 106 135 106 208 127 161 105 115 127
0000e0 7c 6d 60 5d 6c b2 92 b1 70 44 6f 7d ae 83 75 8a
       124 109 96 93 108 178 146 177 112 68 111 125 174 131 117 138
0000f0 94 ae 78 5b 80 9d 79 6a ae 7c 94 95 66 60 76 8e
       148 174 120 91 128 157 121 106 174 124 148 149 102 96 118 142

430_quantized u1 [32, 1, 3, 3]
000000 55 84 9a 6b ff 7a 79 cc 30 63 5c 62 5d 4c 5e 67
       85 132 154 107 255 122 121 204 48 99 92 98 93 76 94 103
000010 58 5c 7c 85 7d 84 9b 8e 69 5e 58 6f 84 89 71 8a
       88 92 124 133 125 132 155 142 105 94 88 111 132 137 113 138
000020 8a 6c 79 79 64 4c 4f 50 1a 36 58 35 5a 84 86 6a
       138 108 121 121 100 76 79 80 26 54 88 53 90 132 134 106
000030 a2 7b 51 84 54 68 6b 5e 60 75 6a 45 73 88 5b 6e
       162 123 81 132 84 104 107 94 96 117 106 69 115 136 91 110
000040 63 63 84 98 8f 7e 89 79 8b 8c 79 9e ac 92 7b a5
       99 99 132 152 143 126 137 121 139 140 121 158 172 146 123 165
000050 98 7f 88 7e 8a 9c 90 88 94 88 56 29 33 69 26 42
       152 127 136 126 138 156 144 136 148 136 86 41 51 105 38 66
000060 73 4d 4e 6d 6d 6d 6d 6d 6d 6d 6d 6d 4e 43 67 4c
       115 77 78 109 109 109 109 109 109 109 109 109 78 67 103 76
000070 3d 52 57 4c 5c 84 8c 7f 8a 90 7a 7b 7f 70 71 70
       61 82 87 76 92 132 140 127 138 144 122 123 127 112 113 112
000080 6a 6d 73 70 70 6d 6c 9d b6 00 50 fb 82 43 90 ba
       106 109 115 112 112 109 108 157 182 0 80 251 130 67 144 186
000090 8a 9d 5e 81 82 13 72 7b 0f 75 89 81 81 99 91 77
       138 157 94 129 130 19 114 123 15 117 137 129 129 153 145 119
0000a0 88 82 7b 7a 77 85 9c 8e 80 a8 8e 6b 6b 6f 7c 89
       136 130 123 122 119 133 156 142 128 168 142 107 107 111 124 137
0000b0 85 8d 9c 88 5f 46 59 70 7f 8c 86 a7 a5 7d 84 76
       133 141 156 136 95 70 89 112 127 140 134 167 165 125 132 118
0000c0 81 90 7e 76 7f 75 8a 81 6e 8f 8c 78 78 75 6d 6e
       129 144 126 118 127 117 138 129 110 143 140 120 120 117 109 110
0000d0 78 86 77 99 95 77 97 7d 65 64 71 76 65 6d 6b 69
       120 134 119 153 149 119 151 125 101 100 113 118 101 109 107 105
0000e0 71 7e 9c 98 67 61 5f 65 6b 68 7a 85 76 83 9b 85
       113 126 156 152 103 97 95 101 107 104 122 133 118 131 155 133
0000f0 81 89 7f 78 94 90 8b a3 90 79 89 82 6d 6d 6d 6d
       129 137 127 120 148 144 139 163 144 121 137 130 109 109 109 109

434_quantized u1 [64, 32, 1, 1]
000000 94 70 8c b6 71 6e 5d 82 87 91 66 82 72 70 80 a5
       148 112 140 182 113 110 93 130 135 145 102 130 114 112 128 165
000010 ea 87 8f 79 8a 77 52 6b 82 7f 7d 82 80 7f 81 7f
       234 135 143 121 138 119 82 107 130 127 125 130 128 127 129 127
000020 7f 80 ff a5 61 7e 9a 0b 9b ac 63 7e 64 80 82 96
       127 128 255 165 97 126 154 11 155 172 99 126 100 128 130 150
000030 a6 96 6c 31 10 5a 7c ac 83 56 59 59 82 3f 7f 7c
       166 150 108 49 16 90 124 172 131 86 89 89 130 63 127 124
000040 67 8c 7d 46 7e 91 72 77 94 83 6a 82 8b 59 81 6c
       103 140 125 70 126 145 114 119 148 131 106 130 139 89 129 108
000050 60 9a 87 a5 7d 7c 8a 90 81 79 71 90 80 87 82 87
       96 154 135 165 125 124 138 144 129 121 113 144 128 135 130 135
000060 8c 81 73 cf 4d 80 89 7d 58 ab 81 7f 57 60 80 98
       140 129 115 207 77 128 137 125 88 171 129 127 87 96 128 152
000070 60 97 30 a2 bd 4f 43 9c 81 86 74 c5 82 96 7f 96
       96 151 48 162 189 79 67 156 129 134 116 197 130 150 127 150
000080 75 8b 80 58 68 7f 6f 7b a2 7b 7b 81 7a c3 82 80
       117 139 128 88 104 127 111 123 162 123 123 129 122 195 130 128
000090 8e 9c 4a 69 82 68 8e 79 81 87 93 70 80 8d 82 7e
       142 156 74 105 130 104 142 121 129 135 147 112 128 141 130 126
0000a0 a5 39 84 8a 8d 65 87 88 92 8d 59 83 76 8f 81 92
       165 57 132 138 141 101 135 136 146 141 89 131 118 143 129 146
0000b0 6f 88 99 7b 6a 60 44 8e 82 83 54 84 7f a1 82 8e
       111 136 153 123 106 96 68 142 130 131 84 132 127 161 130 142
0000c0 7b b0 7e 86 9d 8b 7d 85 7e 7b 89 80 95 7a 81 87
       123 176 126 134 157 139 125 133 126 123 137 128 149 122 129 135
0000d0 8b 9f 7c 71 7c 89 70 86 82 7e 9c 84 80 8e 80 71
       139 159 124 113 124 137 112 134 130 126 156 132 128 142 128 113
0000e0 78 69 85 94 69 71 98 83 82 81 73 80 8a 8a 80 7e
       120 105 133 148 105 113 152 131 130 129 115 128 138 138 128 126
0000f0 76 81 74 70 64 70 81 83 80 83 8a 80 81 85 80 90
       118 129 116 112 100 112 129 131 128 131 138 128 129 133 128 144

438_quantized u1 [64, 1, 3, 3]
000000 67 7b 66 5a a3 62 63 73 6c 65 56 65 69 8a 6c 69
       103 123 102 90 163 98 99 115 108 101 86 101 105 138 108 105
000010 5e 64 6a 55 6b 74 59 7b 69 51 67 64 64 6e 6c 6c
       94 100 106 85 107 116 89 123 105 81 103 100 100 110 108 108
000020 73 7a 69 7e 7e 5a 50 77 7d 59 76 75 6c 5c 52 9b
       115 122 105 126 126 90 80 119 125 89 118 117 108 92 82 155
000030 68 6a 64 64 64 69 70 a5 7e 78 6c 75 62 58 55 68
       104 106 100 100 100 105 112 165 126 120 108 117 98 88 85 104
000040 6c 6d 6e 08 86 62 71 75 5f 49 80 72 6f 75 61 64
       108 109 110 8 134 98 113 117 95 73 128 114 111 117 97 100
000050 66 49 8d 67 68 5a 63 8e 64 75 4b 90 7b 5e 6a 6f
       102 73 141 103 104 90 99 142 100 117 75 144 123 94 106 111
000060 64 68 67 6a 73 4a 69 6b c8 61 60 6c 5f 42 67 64
       100 104 103 106 115 74 105 107 200 97 96 108 95 66 103 100
000070 53 6f 7b ab 66 5e 71 64 37 9a 72 59 69 6d 6a 5e
       83 111 123 171 102 94 113 100 55 154 114 89 105 109 106 94
000080 6a 5f 78 8d 65 68 89 6e 72 6d 6b 81 72 62 55 5f
       106 95 120 141 101 104 137 110 114 109 107 129 114 98 85 95
000090 6d 6b 67 6c 6e 61 6e 6e 64 6a 61 67 64 5b 64 6c
       109 107 103 108 110 97 110 110 100 106 97 103 100 91 100 108
0000a0 85 6f 68 60 69 70 29 67 77 85 70 68 8f 72 6e 44
       133 111 104 96 105 112 41 103 119 133 112 104 143 114 110 68
0000b0 6c 6f 5f 69 55 8f 70 54 68 64 5b 64 70 71 6f 6a
       108 111 95 105 85 143 112 84 104 100 91 100 112 113 111 106
0000c0 65 00 65 66 71 6f 71 54 59 70 b3 43 6f 81 75 63
       101 0 101 102 113 111 113 84 89 112 179 67 111 129 117 99
0000d0 5a 66 53 92 67 62 75 6a 6c 76 69 79 97 69 66 5b
       90 102 83 146 103 98 117 106 108 118 105 121 151 105 102 91
0000e0 6a 7c 6d 6f 83 62 64 6c 5e 61 5b 60 62 58 5e 71
       106 124 109 111 131 98 100 108 94 97 91 96 98 88 94 113
0000f0 5d 5c 69 68 60 6b 55 54 6c 64 6b 54 65 46 7c 79
       93 92 105 104 96 107 85 84 108 100 107 84 101 70 124 121

442_quantized u1 [64, 64, 1, 1]
000000 7f 63 7f af 7b 88 8a 84 8e 83 8e 88 9b 7c 9b 8c
       127 99 127 175 123 136 138 132 142 131 142 136 155 124 155 140
000010 89 77 70 be 71 78 93 80 5b 75 96 90 7f 80 93 99
       137 119 112 190 113 120 147 128 91 117 150 144 127 128 147 153
000020 80 70 a0 9e 9a 8e a2 92 85 81 8a a4 a3 a5 8b 7c
       128 112 160 158 154 142 162 146 133 129 138 164 163 165 139 124
000030 a3 82 72 80 8a 75 88 a6 8e 73 89 92 98 96 82 a2
       163 130 114 128 138 117 136 166 142 115 137 146 152 150 130 162
000040 81 8d 82 8c 88 8c 81 83 8c 86 87 8b 89 86 8c 8b
       129 141 130 140 136 140 129 131 140 134 135 139 137 134 140 139
000050 88 96 8f 8c 8c 7f 81 8b 86 8d 87 80 90 82 8e 92
       136 150 143 140 140 127 129 139 134 141 135 128 144 130 142 146
000060 8a 8e 90 90 86 8a 86 85 8a 86 84 87 91 90 8b 8a
       138 142 144 144 134 138 134 133 138 134 132 135 145 144 139 138
000070 8c 8d 80 88 97 87 81 8d 8c 85 8b 5c 86 7e 89 85
       140 141 128 136 151 135 129 141 140 133 139 92 134 126 137 133
000080 6c 6b 5a 7b 8e c4 59 95 b7 76 49 8c 7e 83 9b 90
       108 107 90 123 142 196 89 149 183 118 73 140 126 131 155 144
000090 87 8d 73 84 a9 88 7a 72 9b a0 8a 80 9a 87 99 97
       135 141 115 132 169 136 122 114 155 160 138 128 154 135 153 151
0000a0 87 85 80 88 84 8e 97 77 a6 85 60 88 7d 84 a8 77
       135 133 128 136 132 142 151 119 166 133 96 136 125 132 168 119
0000b0 72 63 90 84 8a 83 86 88 6a b8 8f 77 8e 94 8f 93
       114 99 144 132 138 131 134 136 106 184 143 119 142 148 143 147
0000c0 82 a7 94 72 a3 9b 8e 93 96 78 af 94 90 97 86 6d
       130 167 148 114 163 155 142 147 150 120 175 148 144 151 134 109
0000d0 88 99 82 7e a3 73 84 86 8a 90 96 8b ab 85 80 84
       136 153 130 126 163 115 132 134 138 144 150 139 171 133 128 132
0000e0 87 7d 92 a0 51 8a 9c 76 7b 8d 73 94 72 97 8e 7c
       135 125 146 160 81 138 156 118 123 141 115 148 114 151 142 124
0000f0 78 7a 6f a3 6f 98 81 7a 76 81 82 a0 72 72 71 88
       120 122 111 163 111 152 129 122 118 129 130 160 114 114 113 136

446_quantized u1 [64, 1, 3, 3]
000000 4e 4b 53 47 41 47 5d 79 5d 55 4a 4a 54 00 54 4f
       78 75 83 71 65 71 93 121 93 85 74 74 84 0 84 79
000010 3b 4f 69 73 65 4d 4d 4f 50 51 52 56 6d 39 48 3f
       59 79 105 115 101 77 77 79 80 81 82 86 109 57 72 63
000020 5e 4d 58 78 55 55 4c 55 3f 49 54 8e 5a 55 63 56
       94 77 88 120 85 85 76 85 63 73 84 142 90 85 99 86
000030 5e 73 4a 4e 5b 58 5f 57 5c 67 4a 68 4d 4e 5a 43
       94 115 74 78 91 88 95 87 92 103 74 104 77 78 90 67
000040 44 49 44 4b 41 4e 45 4b 56 55 5d 50 5d 5a 5e 55
       68 73 68 75 65 78 69 75 86 85 93 80 93 90 94 85
000050 60 68 5b 54 60 5d 4b 52 5c 49 59 48 4a 55 6e 4b
       96 104 91 84 96 93 75 82 92 73 89 72 74 85 110 75
000060 5b 3d 3f 52 52 52 52 52 52 52 52 52 53 5f 58 63
       91 61 63 82 82 82 82 82 82 82 82 82 83 95 88 99
000070 a2 51 55 5a 4f 56 47 55 68 78 60 59 5c 56 5a 71
       162 81 85 90 79 86 71 85 104 120 96 89 92 86 90 113
000080 4d 49 3c 48 4a 4b 4f 4a 51 5c 65 4f 3e 68 70 5b
       77 73 60 72 74 75 79 74 81 92 101 79 62 104 112 91
000090 50 4e 50 4b 4e 58 65 6c 5e 50 79 81 61 34 46 52
       80 78 80 75 78 88 101 108 94 80 121 129 97 52 70 82
0000a0 60 4f 51 62 58 4d 5b 57 46 43 44 49 44 47 62 4a
       96 79 81 98 88 77 91 87 70 67 68 73 68 71 98 74
0000b0 44 53 65 44 52 6e 56 43 7a 50 56 53 53 52 50 51
       68 83 101 68 82 110 86 67 122 80 86 83 83 82 80 81
0000c0 51 52 51 52 50 51 50 5e 5e 41 71 54 53 4b 4d 5c
       81 82 81 82 80 81 80 94 94 65 113 84 83 75 77 92
0000d0 4d 60 60 4f 61 61 4e 60 53 36 3a 3c 2b 48 4a 44
       77 96 96 79 97 97 78 96 83 54 58 60 43 72 74 68
0000e0 4d 4d 5c 67 52 4f 79 50 53 55 4c 43 54 45 43 50
       77 77 92 103 82 79 121 80 83 85 76 67 84 69 67 80
0000f0 41 45 77 58 63 57 59 ff 42 55 42 58 3c 52 55 49
       65 69 119 88 99 87 89 255 66 85 66 88 60 82 85 73

450_quantized u1 [64, 64, 1, 1]
000000 57 8e 74 87 6d 77 55 78 59 5d 9a 7a 77 92 51 a4
       87 142 116 135 109 119 85 120 89 93 154 122 119 146 81 164
000010 85 86 7e 89 7e 78 75 86 b4 8b 70 7f 93 88 79 80
       133 134 126 137 126 120 117 134 180 139 112 127 147 136 121 128
000020 72 7f 68 74 6e 6e 7a 75 6c 7d 8b 52 6d 81 73 7f
       114 127 104 116 110 110 122 117 108 125 139 82 109 129 115 127
000030 a5 b1 a2 61 9c 92 9e 7e 78 74 80 89 8b 7e 5f a4
       165 177 162 97 156 146 158 126 120 116 128 137 139 126 95 164
000040 6c 70 60 63 5f 78 4b 35 5e 96 79 7b 97 5f 71 71
       108 112 96 99 95 120 75 53 94 150 121 123 151 95 113 113
000050 86 8a 59 6f 81 79 84 54 6e 5b 9d 83 7c 71 7a 88
       134 138 89 111 129 121 132 84 110 91 157 131 124 113 122 136
000060 a1 84 5f 85 74 b0 66 73 ab b3 55 6a 81 7a 60 73
       161 132 95 133 116 176 102 115 171 179 85 106 129 122 96 115
000070 71 7b 67 5b 71 8e 90 42 6b 6f 9c 7a 95 75 96 8a
       113 123 103 91 113 142 144 66 107 111 156 122 149 117 150 138
000080 71 4b 81 81 73 71 65 77 7d 72 73 78 94 6f 7c 7d
       113 75 129 129 115 113 101 119 125 114 115 120 148 111 124 125
000090 6b 7a 7c 6c 7c 79 79 92 77 81 6d b0 6c 86 78 8f
       107 122 124 108 124 121 121 146 119 129 109 176 108 134 120 143
0000a0 6e 8c 7d 68 8a 80 95 73 7a 8f 6d 68 60 84 66 7e
       110 140 125 104 138 128 149 115 122 143 109 104 96 132 102 126
0000b0 88 74 84 68 78 81 7a 75 85 69 74 92 7d 75 5e 79
       136 116 132 104 120 129 122 117 133 105 116 146 125 117 94 121
0000c0 93 77 a7 53 8d 84 58 3c 46 9e 84 7b 64 30 b8 36
       147 119 167 83 141 132 88 60 70 158 132 123 100 48 184 54
0000d0 6e 85 b8 b2 7c 79 46 52 4f 9d a0 72 7f 4c 7b 20
       110 133 184 178 124 121 70 82 79 157 160 114 127 76 123 32
0000e0 63 94 a3 7c 66 79 a9 9f 53 85 1d c8 a8 77 85 68
       99 148 163 124 102 121 169 159 83 133 29 200 168 119 133 104
0000f0 5f 49 a0 92 7b 77 38 80 58 ab 4a 8c 52 87 63 66
       95 73 160 146 123 119 56 128 88 171 74 140 82 135 99 102

454_quantized u1 [64, 1, 3, 3]
000000 7e 7a 79 7e 8c 78 82 83 87 7c 83 8b 86 7e 7c 7b
       126 122 121 126 140 120 130 131 135 124 131 139 134 126 124 123
000010 7d 84 87 86 8b 8b 4f 88 83 af 8a 7f 99 8f 8d a4
       125 132 135 134 139 139 79 136 131 175 138 127 153 143 141 164
000020 9b 8a 9c 94 7e a4 90 82 00 86 8a 6a 8a 93 a2 9b
       155 138 156 148 126 164 144 130 0 134 138 106 138 147 162 155
000030 94 7b 79 89 7d 84 86 87 8a 9b 4c 85 87 80 87 8b
       148 123 121 137 125 132 134 135 138 155 76 133 135 128 135 139
000040 82 7f 93 7b 89 92 77 82 93 9d 81 a6 8a 82 9a a4
       130 127 147 123 137 146 119 130 147 157 129 166 138 130 154 164
000050 82 82 7c 7c 7f 7b 85 95 a7 9b 81 80 7e 86 b3 8d
       130 130 124 124 127 123 133 149 167 155 129 128 126 134 179 141
000060 93 91 95 82 79 7d 7b 77 80 88 95 85 84 70 83 7d
       147 145 149 130 121 125 123 119 128 136 149 133 132 112 131 125
000070 a5 87 80 96 87 8c 88 8a 89 c9 8b 8f 85 85 8e 91
       165 135 128 150 135 140 136 138 137 201 139 143 133 133 142 145
000080 8c 87 bd 95 8e 84 8b 8a 8a 8a 8a 8a 8a 8a 8a 8a
       140 135 189 149 142 132 139 138 138 138 138 138 138 138 138 138
000090 88 8a 83 85 7b 79 83 77 7e 86 8d 86 8c 87 89 8d
       136 138 131 133 123 121 131 119 126 134 141 134 140 135 137 141
0000a0 8b 89 8c 8d 91 84 97 86 83 6d 82 91 83 95 98 da
       139 137 140 141 145 132 151 134 131 109 130 145 131 149 152 218
0000b0 98 9b 90 96 97 91 86 9f 7e 8b ab 87 88 7b 8c 8e
       152 155 144 150 151 145 134 159 126 139 171 135 136 123 140 142
0000c0 85 6c 75 8c af c3 72 77 70 77 81 75 71 78 73 92
       133 108 117 140 175 195 114 119 112 119 129 117 113 120 115 146
0000d0 94 9e 82 8c b3 89 83 b4 89 8d 85 84 73 7f 7c 7a
       148 158 130 140 179 137 131 180 137 141 133 132 115 127 124 122
0000e0 7e 75 af 7e 73 ac 65 5e a4 66 a9 93 69 ba 87 82
       126 117 175 126 115 172 101 94 164 102 169 147 105 186 135 130
0000f0 a4 8d 65 75 ff 86 67 5e a1 70 c5 8c 8f 89 8f 90
       164 141 101 117 255 134 103 94 161 112 197 140 143 137 143 144

458_quantized u1 [64, 64, 1, 1]
000000 84 8f 82 9c 81 94 9f 70 6a 8a 96 88 9a 7e 92 89
       132 143 130 156 129 148 159 112 106 138 150 136 154 126 146 137
000010 6d 87 c0 7c a4 90 7f 65 5c 73 ad 72 7f 6b 8b 6e
       109 135 192 124 164 144 127 101 92 115 173 114 127 107 139 110
000020 54 7d 91 82 9c 76 7f 89 95 89 86 96 7d 5f 9d 7d
       84 125 145 130 156 118 127 137 149 137 134 150 125 95 157 125
000030 99 68 7c a0 76 55 af 95 90 5e 92 93 7c a3 9f 96
       153 104 124 160 118 85 175 149 144 94 146 147 124 163 159 150
000040 b7 78 85 b6 8c 81 8c 5b 81 7e 75 64 bc 9d 70 86
       183 120 133 182 140 129 140 91 129 126 117 100 188 157 112 134
000050 7e 87 6b 7a a7 a2 47 75 87 72 98 77 92 6f 5b 7a
       126 135 107 122 167 162 71 117 135 114 152 119 146 111 91 122
000060 85 85 8c 16 a0 a2 99 8d 80 99 6f 98 85 84 8a 6a
       133 133 140 22 160 162 153 141 128 153 111 152 133 132 138 106
000070 43 92 93 81 70 80 72 8b 88 83 94 d5 75 72 b3 7e
       67 146 147 129 112 128 114 139 136 131 148 213 117 114 179 126
000080 94 90 8f 7d 8b 96 76 93 89 70 5a 3f 66 72 7d 88
       148 144 143 125 139 150 118 147 137 112 90 63 102 114 125 136
000090 8a 89 5d a7 6f 7f b8 7f 88 a1 8a 8f 8a a0 7c 99
       138 137 93 167 111 127 184 127 136 161 138 143 138 160 124 153
0000a0 a0 86 8f 93 9f a0 71 50 79 93 75 a9 ae 8a 7f 7d
       160 134 143 147 159 160 113 80 121 147 117 169 174 138 127 125
0000b0 6b 92 87 7e 84 7a 46 74 7c a2 79 72 bb 63 73 59
       107 146 135 126 132 122 70 116 124 162 121 114 187 99 115 89
0000c0 9a a2 87 9d 87 74 8b 80 6c 86 7b 90 7b 8e 7e 88
       154 162 135 157 135 116 139 128 108 134 123 144 123 142 126 136
0000d0 b9 85 9f a6 85 72 8e 6e 95 ae 8f 6d 8d 82 c0 9c
       185 133 159 166 133 114 142 110 149 174 143 109 141 130 192 156
0000e0 9d 52 9d 96 a2 9f 8c 7f a9 8a 71 94 9f 88 80 8e
       157 82 157 150 162 159 140 127 169 138 113 148 159 136 128 142
0000f0 b0 89 8e e6 8b 8b 8d 95 84 7b 4b 7a 7e 5f 82 72
       176 137 142 230 139 139 141 149 132 123 75 122 126 95 130 114

classification_headers.0.0.weight_quantized u1 [64, 1, 3, 3]
000000 1d 1d 21 1b 1d 1a 20 1c 1e 1d 20 1e 23 26 1f 20
       29 29 33 27 29 26 32 28 30 29 32 30 35 38 31 32
000010 23 1e 20 1f 19 20 1c 1b 1c 21 25 27 1e 1f 1e 1a
       35 30 32 31 25 32 28 27 28 33 37 39 30 31 30 26
000020 1e 1f 24 1c 1e 20 20 1c 1d 21 21 22 20 1f 1f 1e
       30 31 36 28 30 32 32 28 29 33 33 34 32 31 31 30
000030 1f 1d 1f 1f 1f 1e 63 20 66 1f 08 23 63 17 5e 19
       31 29 31 31 31 30 99 32 102 31 8 35 99 23 94 25
000040 1a 19 1a 1b 1b 19 1a 19 21 20 24 1c 23 1f 1d 1e
       26 25 26 27 27 25 26 25 33 32 36 28 35 31 29 30
000050 23 26 30 23 20 34 23 1c 0d 15 1f 22 1f 1f 25 20
       35 38 48 35 32 52 35 28 13 21 31 34 31 31 37 32
000060 1e 22 1f 20 21 20 21 28 20 22 20 21 29 20 26 23
       30 34 31 32 33 32 33 40 32 34 32 33 41 32 38 35
000070 24 21 20 1d 22 1e 1f 1f 1f 1c 1f 1f 1f 1f 1b 1c
       36 33 32 29 34 30 31 31 31 28 31 31 31 31 27 28
000080 1b 1e 1d 1e 21 23 1b 25 1d 1e 1c 19 19 1c 20 1d
       27 30 29 30 33 35 27 37 29 30 28 25 25 28 32 29
000090 20 1c 23 1b 1c 1d 1a 1d 1b 1c 24 1e 1d 1c 1d 23
       32 28 35 27 28 29 26 29 27 28 36 30 29 28 29 35
0000a0 1d 1d 20 1e 23 1e 20 21 23 22 21 20 1d 1d 1c 1f
       29 29 32 30 35 30 32 33 35 34 33 32 29 29 28 31
0000b0 1c 20 1c 1c 24 25 22 1c 1d 25 21 21 22 22 22 2b
       28 32 28 28 36 37 34 28 29 37 33 33 34 34 34 43
0000c0 1c 1c 22 1b 1d 1b 21 1c 20 21 24 22 20 24 23 22
       28 28 34 27 29 27 33 28 32 33 36 34 32 36 35 34
0000d0 1d 1b 24 1e 22 1f 24 1e 25 23 27 1d 1f 1b 22 1e
       29 27 36 30 34 31 36 30 37 35 39 29 31 27 34 30
0000e0 29 55 54 59 5a 14 53 54 50 50 20 20 1f 1e 1b 1e
       41 85 84 89 90 20 83 84 80 80 32 32 31 30 27 30
0000f0 1a 22 1e 1c 1f 20 25 25 1e 1d 19 1f 1d 1f 1d 1f
       26 34 30 28 31 32 37 37 30 29 25 31 29 31 29 31

classification_headers.0.2.weight_quantized u1 [6, 64, 1, 1]
000000 7f 7d 7f 80 90 87 80 7a 7e 84 80 7d 82 89 80 82
       127 125 127 128 144 135 128 122 126 132 128 125 130 137 128 130
000010 81 7f 8d 7f 7f 7f 7d 84 7f 7e 7f 7f 82 81 7f 80
       129 127 141 127 127 127 125 132 127 126 127 127 130 129 127 128
000020 7e 81 7e 74 82 7f 81 81 7c 7e 1a 88 80 7f 7d 7d
       126 129 126 116 130 127 129 129 124 126 26 136 128 127 125 125
000030 7f 7f 7e 7e 80 7e 7c 7d 85 7f 8a 7b 87 7f 7d 85
       127 127 126 126 128 126 124 125 133 127 138 123 135 127 125 133
000040 7e 80 7f 7f 6c 76 80 83 7f 79 7f 81 7d 76 80 7b
       126 128 127 127 108 118 128 131 127 121 127 129 125 118 128 123
000050 7e 7f 70 7f 7f 80 81 7c 7d 7e 7f 7f 7b 7e 81 7f
       126 127 112 127 127 128 129 124 125 126 127 127 123 126 129 127
000060 82 7d 7f 8a 7e 7e 7e 7d 82 7f e4 78 7d 7e 80 81
       130 125 127 138 126 126 126 125 130 127 228 120 125 126 128 129
000070 7f 80 81 80 7e 7f 81 81 78 7e 74 83 78 7f 81 79
       127 128 129 128 126 127 129 129 120 126 116 131 120 127 129 121
000080 7e 7c 7e 7f 92 83 7f 7f 7e 82 80 7f 80 83 7f 81
       126 124 126 127 146 131 127 127 126 130 128 127 128 131 127 129
000090 7f 7f 8f 7e 82 80 7e 83 80 d2 7e 7d 82 82 7f 84
       127 127 143 126 130 128 126 131 128 210 126 125 130 130 127 132
0000a0 7d 7e 86 00 83 80 81 7f 7e 80 7f 63 81 7f 7f 7d
       125 126 134 0 131 128 129 127 126 128 127 99 129 127 127 125
0000b0 7e 7f 7a 7f 80 82 7e 80 84 80 5a 80 85 80 7d 83
       126 127 122 127 128 130 126 128 132 128 90 128 133 128 125 131
0000c0 7f 81 82 7d 6b 7b 7f 80 7e 7d 7d 81 7d 79 80 7d
       127 129 130 125 107 123 127 128 126 125 125 129 125 121 128 125
0000d0 7f 7e 6f 7f 7b 80 7f 7a 7d 2b 80 82 7b 7d 80 7c
       127 126 111 127 123 128 127 122 125 43 128 130 123 125 128 124
0000e0 7f 80 79 ff 7c 7e 7c 7e 80 7e 7f 9a 7e 80 80 81
       127 128 121 255 124 126 124 126 128 126 127 154 126 128 128 129
0000f0 7e 80 84 7f 7d 7c 80 7f 7a 7f a5 80 7b 7f 82 79
       126 128 132 127 125 124 128 127 122 127 165 128 123 127 130 121

regression_headers.0.0.weight_quantized u1 [64, 1, 3, 3]
000000 5c 7e b0 60 47 72 86 59 5b 83 6d 84 74 54 6c 89
       92 126 176 96 71 114 134 89 91 131 109 132 116 84 108 137
000010 cf 8a 74 64 80 86 e9 7e 7b 65 76 94 92 9b 8c 7c
       207 138 116 100 128 134 233 126 123 101 118 148 146 155 140 124
000020 94 9c 98 9f 73 76 75 77 75 75 76 77 73 83 6c 96
       148 156 152 159 115 118 117 119 117 117 118 119 115 131 108 150
000030 89 43 a6 76 80 91 77 87 66 7d 82 6c 70 6b 72 75
       137 67 166 118 128 145 119 135 102 125 130 108 112 107 114 117
000040 77 72 74 76 72 73 79 77 77 75 76 73 75 76 77 76
       119 114 116 118 114 115 121 119 119 117 118 115 117 118 119 118
000050 75 9d 76 73 93 58 5c 9a 6e 68 6e 77 74 73 ed 6a
       117 157 118 115 147 88 92 154 110 104 110 119 116 115 237 106
000060 6f 7a 71 7b 9b 7a 73 00 74 74 77 73 76 77 74 73
       111 122 113 123 155 122 115 0 116 116 119 115 118 119 116 115
000070 78 74 74 7a 7a 7e 7b 7b 7d cf 7f 7b 80 7a 73 73
       120 116 116 122 122 126 123 123 125 207 127 123 128 122 115 115
000080 75 76 76 74 75 75 76 77 77 73 73 76 77 77 74 73
       117 118 118 116 117 117 118 119 119 115 115 118 119 119 116 115
000090 8f 8b 7e 82 7e 6c 7d 83 73 73 75 76 74 76 74 74
       143 139 126 130 126 108 125 131 115 115 117 118 116 118 116 116
0000a0 74 74 74 75 78 73 76 73 76 78 73 78 75 8c 74 5b
       116 116 116 117 120 115 118 115 118 120 115 120 117 140 116 91
0000b0 c9 75 7b 76 65 69 7f 7d 3c 7f 8b 56 6e 77 75 78
       201 117 123 118 101 105 127 125 60 127 139 86 110 119 117 120
0000c0 76 77 79 78 73 75 6d 60 7c 89 94 a0 95 ae a2 73
       118 119 121 120 115 117 109 96 124 137 148 160 149 174 162 115
0000d0 73 73 73 73 74 77 76 76 7c 6f 61 92 85 54 a7 89
       115 115 115 115 116 119 118 118 124 111 97 146 133 84 167 137
0000e0 6c 72 72 81 67 7e 89 71 9d 7a 75 76 73 74 72 77
       108 114 114 129 103 126 137 113 157 122 117 118 115 116 114 119
0000f0 75 75 74 7d aa 7e 84 c0 85 83 8a 83 75 76 77 76
       117 117 116 125 170 126 132 192 133 131 138 131 117 118 119 118

regression_headers.0.2.weight_quantized u1 [12, 64, 1, 1]
000000 89 84 8a 88 86 80 81 89 87 8b d7 83 87 97 88 86
       137 132 138 136 134 128 129 137 135 139 215 131 135 151 136 134
000010 88 87 87 bc 64 88 89 87 95 8b 88 8b 87 8e 76 81
       136 135 135 188 100 136 137 135 149 139 136 139 135 142 118 129
000020 92 70 88 85 81 86 86 87 83 87 8a 89 83 86 84 f2
       146 112 136 133 129 134 134 135 131 135 138 137 131 134 132 242
000030 87 80 84 84 8b 87 88 23 87 88 72 88 87 81 73 4c
       135 128 132 132 139 135 136 35 135 136 114 136 135 129 115 76
000040 8d d0 b7 7e 87 8a 8a 86 87 80 87 00 88 69 87 88
       141 208 183 126 135 138 138 134 135 128 135 0 136 105 135 136
000050 85 87 87 86 8e 87 92 87 8b 94 86 73 87 a1 8b 85
       133 135 135 134 142 135 146 135 139 148 134 115 135 161 139 133
000060 83 89 9f 7e 4a 8d 87 87 86 87 8b 5f 85 82 ff 85
       131 137 159 126 74 141 135 135 134 135 139 95 133 130 255 133
000070 88 5f 83 80 84 8e 88 84 87 7f 8d 87 88 7a 80 82
       136 95 131 128 132 142 136 132 135 127 141 135 136 122 128 130
000080 7b a4 76 9c 88 71 8c 87 87 82 65 8e 89 85 87 87
       123 164 118 156 136 113 140 135 135 130 101 142 137 133 135 135
000090 7a 87 87 b2 84 86 82 86 92 90 87 9e 86 86 97 79
       122 135 135 178 132 134 130 134 146 144 135 158 134 134 151 121
0000a0 6e 85 9e 8d 97 89 87 86 76 87 8c 95 e9 7a 87 9a
       110 133 158 141 151 137 135 134 118 135 140 149 233 122 135 154
0000b0 87 6d 84 3c 4b 78 5b 87 87 7f 94 86 88 19 6b af
       135 109 132 60 75 120 91 135 135 127 148 134 136 25 107 175
0000c0 83 be 62 3b 87 7f 82 87 87 9a 71 8c 86 8c 87 87
       131 190 98 59 135 127 130 135 135 154 113 140 134 140 135 135
0000d0 80 87 86 a2 83 87 62 87 8f 88 88 df 87 83 7b 74
       128 135 134 162 131 135 98 135 143 136 136 223 135 131 123 116
0000e0 72 83 ab 9b a3 8c 87 87 78 87 8c 93 cb 7e 8b 92
       114 131 171 155 163 140 135 135 120 135 140 147 203 126 139 146
0000f0 88 60 8d 7c a4 79 54 88 87 8a 88 87 88 17 75 a5
       136 96 141 124 164 121 84 136 135 138 136 135 136 23 117 165

462_quantized u1 [64, 1, 3, 3]
000000 7f b4 8e 60 93 8b 80 86 81 74 84 94 83 7b 7c 7f
       127 180 142 96 147 139 128 134 129 116 132 148 131 123 124 127
000010 91 a3 7f 7c 7b 87 96 98 92 99 92 96 9a 8c 9c 8f
       145 163 127 124 123 135 150 152 146 153 146 150 154 140 156 143
000020 82 7f 7d 78 82 78 92 75 72 72 99 88 9c 8e 7c 99
       130 127 125 120 130 120 146 117 114 114 153 136 156 142 124 153
000030 80 78 a5 83 7f ab 97 9f 9e 8c 94 9c 80 78 96 ad
       128 120 165 131 127 171 151 159 158 140 148 156 128 120 150 173
000040 bb aa cd b6 9b 98 df 85 87 84 8b 84 8e 8a 91 8d
       187 170 205 182 155 152 223 133 135 132 139 132 142 138 145 141
000050 81 83 94 8e 7a 92 ae 78 86 a5 9c a0 8c 96 8b 92
       129 131 148 142 122 146 174 120 134 165 156 160 140 150 139 146
000060 81 76 76 7e 72 83 9a 87 77 a6 93 90 9e bf 9e bc
       129 118 118 126 114 131 154 135 119 166 147 144 158 191 158 188
000070 cc b4 a7 a1 9d 66 7f 93 81 6a 79 70 74 7d 5e b6
       204 180 167 161 157 102 127 147 129 106 121 112 116 125 94 182
000080 e9 94 d9 d6 9d bf ac d2 51 4a fb 67 00 f1 96 09
       233 148 217 214 157 191 172 210 81 74 251 103 0 241 150 9
000090 92 aa 9b 95 9d a5 81 8c 93 75 b1 d5 b3 bc dd 99
       146 170 155 149 157 165 129 140 147 117 177 213 179 188 221 153
0000a0 e9 a8 89 87 89 84 8a 87 8b 84 88 70 6c 7a 73 75
       233 168 137 135 137 132 138 135 139 132 136 112 108 122 115 117
0000b0 7d 7d 8b 81 76 7c 74 79 75 81 6d 80 89 6b 60 59
       125 125 139 129 118 124 116 121 117 129 109 128 137 107 96 89
0000c0 b5 c9 b2 e7 ff b3 93 9e a9 7d 7b 79 89 85 8e 82
       181 201 178 231 255 179 147 158 169 125 123 121 137 133 142 130
0000d0 8f 7f 79 8f 82 98 8d 8c b0 74 61 a3 68 7f 7e 67
       143 127 121 143 130 152 141 140 176 116 97 163 104 127 126 103
0000e0 8a 8b a2 89 92 aa 78 88 97 7b 87 87 87 87 87 87
       138 139 162 137 146 170 120 136 151 123 135 135 135 135 135 135
0000f0 87 87 87 7e 82 84 90 99 81 9c 9d 91 86 87 7b 87
       135 135 135 126 130 132 144 153 129 156 157 145 134 135 123 135

466_quantized u1 [128, 64, 1, 1]
000000 8a 71 7a 49 7d 74 b6 65 7c 6a 7b 70 76 62 9d 85
       138 113 122 73 125 116 182 101 124 106 123 112 118 98 157 133
000010 b9 70 7f 88 89 65 64 77 92 73 7b 77 7b 9e 75 76
       185 112 127 136 137 101 100 119 146 115 123 119 123 158 117 118
000020 68 66 a2 85 83 74 ac 4b 72 46 5d 86 49 6d 5c 6f
       104 102 162 133 131 116 172 75 114 70 93 134 73 109 92 111
000030 9b 7b 5d 77 a0 00 ba 80 9a 83 8a 74 9b 87 82 6f
       155 123 93 119 160 0 186 128 154 131 138 116 155 135 130 111
000040 8d 7d 6b 81 80 72 6a 76 7e 52 66 8a b1 81 4e 8b
       141 125 107 129 128 114 106 118 126 82 102 138 177 129 78 139
000050 e0 65 80 9a 7b 50 90 7f 63 84 7b 68 80 ce 80 7b
       224 101 128 154 123 80 144 127 99 132 123 104 128 206 128 123
000060 7b a0 62 6b 58 97 5c 9e 81 99 a1 6c 72 69 a3 6f
       123 160 98 107 88 151 92 158 129 153 161 108 114 105 163 111
000070 7e 97 bb 4e 74 81 58 5f 56 86 5a 2e 59 a0 61 93
       126 151 187 78 116 129 88 95 86 134 90 46 89 160 97 147
000080 6e 7f 73 7a 7c 7e 76 81 79 99 76 6f 78 88 75 97
       110 127 115 122 124 126 118 129 121 153 118 111 120 136 117 151
000090 5e 7b 79 8c 77 79 80 7b 69 75 7c 78 7d 59 82 8c
       94 123 121 140 119 121 128 123 105 117 124 120 125 89 130 140
0000a0 6e 70 6e 77 76 81 8f 99 83 74 72 a7 74 87 6a 9f
       110 112 110 119 118 129 143 153 131 116 114 167 116 135 106 159
0000b0 6c 79 55 6f 80 91 6e 74 81 87 84 6e 75 71 76 77
       108 121 85 111 128 145 110 116 129 135 132 110 117 113 118 119
0000c0 9f 84 7b 74 7a 77 86 95 7e 84 6e 7a a7 89 68 df
       159 132 123 116 122 119 134 149 126 132 110 122 167 137 104 223
0000d0 9c 70 7a 8c 83 6b 88 78 84 81 7e 78 7d 92 76 69
       156 112 122 140 131 107 136 120 132 129 126 120 125 146 118 105
0000e0 6f 87 64 85 73 6e 57 8b 6a 9d 8b 8d 63 6b 7e 86
       111 135 100 133 115 110 87 139 106 157 139 141 99 107 126 134
0000f0 5a 81 68 71 ad 57 7e 8a 59 6e 89 71 81 87 84 91
       90 129 104 113 173 87 126 138 89 110 137 113 129 135 132 145

470_quantized u1 [128, 1, 3, 3]
000000 46 6e 70 83 c7 76 a4 7b 83 63 34 b6 81 4c 9e 7a
       70 110 112 131 199 118 164 123 131 99 52 182 129 76 158 122
000010 85 24 6c 32 6f c3 ca 7e 83 5d b1 59 63 97 82 9a
       133 36 108 50 111 195 202 126 131 93 177 89 99 151 130 154
000020 a8 6d cb 6f 7b 70 a9 b1 9d 49 95 81 c1 5a 4f 5b
       168 109 203 111 123 112 169 177 157 73 149 129 193 90 79 91
000030 67 63 6c 9c 97 a1 7c 68 62 65 3c 6f 77 e6 4c 97
       103 99 108 156 151 161 124 104 98 101 60 111 119 230 76 151
000040 99 3e 94 65 3c b0 96 5b 84 47 65 58 c2 7c 97 8a
       153 62 148 101 60 176 150 91 132 71 101 88 194 124 151 138
000050 7e a0 ab b6 62 b3 66 7a 34 88 90 9d 6e 5c c6 6b
       126 160 171 182 98 179 102 122 52 136 144 157 110 92 198 107
000060 7e 18 62 4a 53 c7 5b 5b 7f 9e 86 37 5d 55 43 63
       126 24 98 74 83 199 91 91 127 158 134 55 93 85 67 99
000070 58 5a 90 85 9b 48 71 a7 47 6c 35 96 8c 4d 5b 54
       88 90 144 133 155 72 113 167 71 108 53 150 140 77 91 84
000080 70 56 63 61 52 66 69 9b d4 a4 90 68 6d 5a 54 64
       112 86 99 97 82 102 105 155 212 164 144 104 109 90 84 100
000090 a6 87 97 6e 78 47 51 5e 53 b1 7b a1 7b 4b ae 42
       166 135 151 110 120 71 81 94 83 177 123 161 123 75 174 66
0000a0 67 47 5a 88 99 41 6e 93 6e 5a 8a af a3 b8 73 33
       103 71 90 136 153 65 110 147 110 90 138 175 163 184 115 51
0000b0 71 92 58 7a 59 4a ba 65 eb 91 51 60 77 36 6c 70
       113 146 88 122 89 74 186 101 235 145 81 96 119 54 108 112
0000c0 ee 61 2f c1 93 87 75 65 77 88 a4 66 65 5a 4f 8a
       238 97 47 193 147 135 117 101 119 136 164 102 101 90 79 138
0000d0 cb b4 3e 60 7e 4d 88 a4 8d 95 84 6c 95 83 56 54
       203 180 62 96 126 77 136 164 141 149 132 108 149 131 86 84
0000e0 4a 8c 4d 80 86 72 59 51 4c fa 9f 58 1c 96 1c 94
       74 140 77 128 134 114 89 81 76 250 159 88 28 150 28 148
0000f0 2f 42 c2 4e 69 ae 6b 3d 9a 7c 71 9e 69 6f 72 a0
       47 66 194 78 105 174 107 61 154 124 113 158 105 111 114 160

474_quantized u1 [128, 128, 1, 1]
000000 95 85 a5 81 99 94 72 81 91 90 9c 86 8c 7e 6a 9d
       149 133 165 129 153 148 114 129 145 144 156 134 140 126 106 157
000010 97 86 76 85 5e 95 81 90 7f 7b 87 79 94 81 63 9a
       151 134 118 133 94 149 129 144 127 123 135 121 148 129 99 154
000020 a8 85 a0 82 a0 60 8d b4 8c 7d 74 92 89 97 ac 8d
       168 133 160 130 160 96 141 180 140 125 116 146 137 151 172 141
000030 90 92 9e 90 61 88 8d 82 94 9c 82 7a ac ae 85 94
       144 146 158 144 97 136 141 130 148 156 130 122 172 174 133 148
000040 72 81 86 9e b1 a3 98 93 7d 85 9f 96 6d 83 b9 81
       114 129 134 158 177 163 152 147 125 133 159 150 109 131 185 129
000050 be a1 7c 78 91 a1 c8 82 93 73 86 86 a1 77 98 7a
       190 161 124 120 145 161 200 130 147 115 134 134 161 119 152 122
000060 79 5f 8d a7 96 95 9b 86 b9 8e 76 85 8e 7c 89 ac
       121 95 141 167 150 149 155 134 185 142 118 133 142 124 137 172
000070 85 8b 77 8b 8d b3 75 8b 9a 98 95 82 8e 9e 90 7b
       133 139 119 139 141 179 117 139 154 152 149 130 142 158 144 123
000080 95 93 80 85 60 9f 8d 97 91 ae 8e 8c 8a 95 97 8b
       149 147 128 133 96 159 141 151 145 174 142 140 138 149 151 139
000090 97 86 9a 90 88 97 80 83 84 93 78 b2 8d aa 85 96
       151 134 154 144 136 151 128 131 132 147 120 178 141 170 133 150
0000a0 8f 82 8a 8e 7f 8d 8f 88 73 94 8f 7e a1 7b 89 8f
       143 130 138 142 127 141 143 136 115 148 143 126 161 123 137 143
0000b0 93 a6 a0 8f 8c 81 7a 94 83 ac a1 7e 8c 7e a3 94
       147 166 160 143 140 129 122 148 131 172 161 126 140 126 163 148
0000c0 7a 7e ac 87 87 7f 9b 86 7c 6e 97 8a 8f 88 7c 95
       122 126 172 135 135 127 155 134 124 110 151 138 143 136 124 149
0000d0 88 7d 89 a1 88 95 8b 98 ac 92 8b 8c 74 99 b3 98
       136 125 137 161 136 149 139 152 172 146 139 140 116 153 179 152
0000e0 81 83 86 8e 91 9e 8a 79 83 8f 96 89 91 93 9e 7b
       129 131 134 142 145 158 138 121 131 143 150 137 145 147 158 123
0000f0 9c a7 86 c0 97 8c 91 88 7a 66 90 94 a4 8d 88 92
       156 167 134 192 151 140 145 136 122 102 144 148 164 141 136 146

478_quantized u1 [128, 1, 3, 3]
000000 a7 70 97 7c 5e 70 65 78 66 80 97 97 7b 86 68 84
       167 112 151 124 94 112 101 120 102 128 151 151 123 134 104 132
000010 aa 6b 93 95 82 6d 7a 7b 6f 73 6f 72 72 72 72 72
       170 107 147 149 130 109 122 123 111 115 111 114 114 114 114 114
000020 72 72 72 72 c5 ae 53 93 3f 24 7a 3e 93 73 89 85
       114 114 114 114 197 174 83 147 63 36 122 62 147 115 137 133
000030 7e 81 85 74 77 72 65 81 8e c3 68 91 80 75 94 77
       126 129 133 116 119 114 101 129 142 195 104 145 128 117 148 119
000040 39 7e 41 43 64 52 61 55 3c 58 3d 68 82 aa 80 78
       57 126 65 67 100 82 97 85 60 88 61 104 130 170 128 120
000050 7b 50 5b 66 70 5e 61 92 91 8e 64 67 55 6b 48 de
       123 80 91 102 112 94 97 146 145 142 100 103 85 107 72 222
000060 78 97 94 6d 52 55 81 68 50 6b 5d 67 63 43 9f 83
       120 151 148 109 82 85 129 104 80 107 93 103 99 67 159 131
000070 49 89 ab 7a 92 94 4c 6b 5f 98 91 48 a4 8d 63 51
       73 137 171 122 146 148 76 107 95 152 145 72 164 141 99 81
000080 5f 69 59 5d 6b 5f a6 71 7c a0 68 63 b1 65 90 a3
       95 105 89 93 107 95 166 113 124 160 104 99 177 101 144 163
000090 b1 92 65 3b 38 87 9b bd 8c 9d 8f 56 4f 9d a1 76
       177 146 101 59 56 135 155 189 140 157 143 86 79 157 161 118
0000a0 51 5d 85 9e 81 76 95 7e 79 9e 72 72 6f 70 6c 74
       81 93 133 158 129 118 149 126 121 158 114 114 111 112 108 116
0000b0 6b 70 76 78 79 70 75 79 6e 7c 94 97 9b 56 a0 72
       107 112 118 120 121 112 117 121 110 124 148 151 155 86 160 114
0000c0 54 bf 60 3e 95 81 76 61 59 98 93 80 79 88 7a a6
       84 191 96 62 149 129 118 97 89 152 147 128 121 136 122 166
0000d0 a5 71 74 54 63 44 49 43 47 59 5a 57 59 77 60 5f
       165 113 116 84 99 68 73 67 71 89 90 87 89 119 96 95
0000e0 71 66 58 67 56 58 5a 5c 53 62 60 53 6d 5d 6f ae
       113 102 88 103 86 88 90 92 83 98 96 83 109 93 111 174
0000f0 76 aa 77 82 52 97 ba 30 9b 65 9b 7d 8f 37 68 4c
       118 170 119 130 82 151 186 48 155 101 155 125 143 55 104 76

482_quantized u1 [128, 128, 1, 1]
000000 74 75 70 6f 70 6f 70 71 70 6f 6e 6e 73 6a 6d 73
       116 117 112 111 112 111 112 113 112 111 110 110 115 106 109 115
000010 6f 66 70 6f 6e 70 6c 72 6d 6f 6d 6e 73 6d 74 6c
       111 102 112 111 110 112 108 114 109 111 109 110 115 109 116 108
000020 70 70 71 71 6f 6f 71 6d 72 76 6e 6a 6b 6f 6e 70
       112 112 113 113 111 111 113 109 114 118 110 106 107 111 110 112
000030 6e 75 73 6e 68 6d 6b 76 70 76 6f 6b 72 6e 70 6b
       110 117 115 110 104 109 107 118 112 118 111 107 114 110 112 107
000040 6e 73 70 6e 6c 71 71 72 73 6b 6c 70 6e 6d 6e 6e
       110 115 112 110 108 113 113 114 115 107 108 112 110 109 110 110
000050 6c 70 6f 70 70 6e 6f 6e 71 6f 6d 6e 70 6d 72 6f
       108 112 111 112 112 110 111 110 113 111 109 110 112 109 114 111
000060 73 73 6d 6f 6e 6e 70 76 70 6f 6f 6e 70 75 70 70
       115 115 109 111 110 110 112 118 112 111 111 110 112 117 112 112
000070 6d 6f 70 70 74 6c 6c 6f 6d 6c 6e 6c 6f 6f 72 71
       109 111 112 112 116 108 108 111 109 108 110 108 111 111 114 113
000080 87 76 43 6f 70 6d 62 7b 86 65 76 5d 70 84 72 6d
       135 118 67 111 112 109 98 123 134 101 118 93 112 132 114 109
000090 7b 78 8f 6f 60 6c 9f 6d 73 53 61 54 6c 62 57 85
       123 120 143 111 96 108 159 109 115 83 97 84 108 98 87 133
0000a0 65 79 72 60 70 73 7f 70 59 7b 7b 64 58 6f 83 5d
       101 121 114 96 112 115 127 112 89 123 123 100 88 111 131 93
0000b0 81 7d 56 68 62 64 86 64 3b 60 6e 5e 6c 75 79 29
       129 125 86 104 98 100 134 100 59 96 110 94 108 117 121 41
0000c0 66 70 6b 5d 57 79 68 5e 58 63 6d 5b 2a 66 5b 43
       102 112 107 93 87 121 104 94 88 99 109 91 42 102 91 67
0000d0 5d 80 69 88 5b 69 53 6e 54 76 6b 6d 6f 7f 90 50
       93 128 105 136 91 105 83 110 84 118 107 109 111 127 144 80
0000e0 60 7c 4e 50 7b 7a 8c 6d 74 80 80 50 4b 71 50 55
       96 124 78 80 123 122 140 109 116 128 128 80 75 113 80 85
0000f0 46 6d 8b 74 68 84 69 3c 59 8b 5b 86 64 6d 7e 69
       70 109 139 116 104 132 105 60 89 139 91 134 100 109 126 105

classification_headers.1.0.weight_quantized u1 [128, 1, 3, 3]
000000 3b 33 3a 35 34 33 38 3c 32 33 3a 39 32 37 33 33
       59 51 58 53 52 51 56 60 50 51 58 57 50 55 51 51
000010 38 3a 37 36 3a 36 35 35 36 3b 38 39 36 38 3a 35
       56 58 55 54 58 54 53 53 54 59 56 57 54 56 58 53
000020 38 33 38 37 37 38 38 3c 3c 38 37 36 39 3b 36 3c
       56 51 56 55 55 56 56 60 60 56 55 54 57 59 54 60
000030 3a 34 3c 3f 38 36 3a 35 34 3b 36 3b 36 35 3a 3a
       58 52 60 63 56 54 58 53 52 59 54 59 54 53 58 58
000040 38 35 38 39 38 37 37 34 38 32 36 3c 3a 38 33 3b
       56 53 56 57 56 55 55 52 56 50 54 60 58 56 51 59
000050 35 36 34 37 33 37 35 39 36 37 3b 39 3b 3c 3a 32
       53 54 52 55 51 55 53 57 54 55 59 57 59 60 58 50
000060 3a 37 39 3e 40 40 3c 3e 3f 35 3a 3b 32 34 37 35
       58 55 57 62 64 64 60 62 63 53 58 59 50 52 55 53
000070 33 34 33 39 35 37 32 37 39 36 38 3a 3d 3b 35 39
       51 52 51 57 53 55 50 55 57 54 56 58 61 59 53 57
000080 35 32 37 3b 39 37 39 33 3a 36 41 39 34 3a 37 31
       53 50 55 59 57 55 57 51 58 54 65 57 52 58 55 49
000090 34 35 3b 36 3a 3a 39 36 36 35 38 36 34 39 32 37
       52 53 59 54 58 58 57 54 54 53 56 54 52 57 50 55
0000a0 34 36 36 3b 34 33 3a 36 33 39 3a 36 3a 39 3b 33
       52 54 54 59 52 51 58 54 51 57 58 54 58 57 59 51
0000b0 34 3a 3a 34 3a 34 35 3f 35 31 3a 37 35 3b 39 37
       52 58 58 52 58 52 53 63 53 49 58 55 53 59 57 55
0000c0 3d 40 40 34 31 36 35 35 35 34 33 36 35 2f 33 35
       61 64 64 52 49 54 53 53 53 52 51 54 53 47 51 53
0000d0 3a 3d 34 3b 39 3b 36 3b 62 1e 58 7f 5f 75 6c 2c
       58 61 52 59 57 59 54 59 98 30 88 127 95 117 108 44
0000e0 6e 3c 3c 3b 3c 34 35 39 3b 39 34 38 3c 34 36 3a
       110 60 60 59 60 52 53 57 59 57 52 56 60 52 54 58
0000f0 33 38 3d 37 36 39 31 36 38 31 3b 41 39 36 3b 3a
       51 56 61 55 54 57 49 54 56 49 59 65 57 54 59 58

classification_headers.1.2.weight_quantized u1 [4, 128, 1, 1]
000000 7f 80 85 81 84 81 82 84 7f 80 82 8f 81 80 9a 80
       127 128 133 129 132 129 130 132 127 128 130 143 129 128 154 128
000010 81 7e 80 7f 80 80 88 85 8e 7d 85 82 7f 7f 8a 7e
       129 126 128 127 128 128 136 133 142 125 133 130 127 127 138 126
000020 7e 7f 7e ba 82 7e 7f 80 83 92 7f 86 80 80 7f 43
       126 127 126 186 130 126 127 128 131 146 127 134 128 128 127 67
000030 5f 8a 7f 80 7e 7f 99 88 82 80 84 7f 81 98 7f 80
       95 138 127 128 126 127 153 136 130 128 132 127 129 152 127 128
000040 80 00 80 83 91 8f 7f 81 81 80 7e 7f 7f 8d c1 8f
       128 0 128 131 145 143 127 129 129 128 126 127 127 141 193 143
000050 7f 7e 87 79 7f 84 7e 82 7f 80 7f 82 7f 80 81 77
       127 126 135 121 127 132 126 130 127 128 127 130 127 128 129 119
000060 7f 80 7e 7e 93 7c 7f 75 7d 80 80 7f 7f 83 84 a1
       127 128 126 126 147 124 127 117 125 128 128 127 127 131 132 161
000070 5f 85 80 83 7f 80 7e 81 80 7e 71 87 7f 82 3e 8c
       95 133 128 131 127 128 126 129 128 126 113 135 127 130 62 140
000080 80 7f 78 7d 7a 7e 7d 7b 80 7f 7d 6e 7c 7f 64 7e
       128 127 120 125 122 126 125 123 128 127 125 110 124 127 100 126
000090 7f 7f 7e 7f 7e 7f 75 7a 71 80 78 7d 7f 80 74 7f
       127 127 126 127 126 127 117 122 113 128 120 125 127 128 116 127
0000a0 80 80 7f 43 7c 7e 7f 7e 7c 6b 7d 78 7e 80 7e ba
       128 128 127 67 124 126 127 126 124 107 125 120 126 128 126 186
0000b0 a0 73 7f 7f 7f 7f 65 77 7d 7e 7a 80 7d 68 7f 7f
       160 115 127 127 127 127 101 119 125 126 122 128 125 104 127 127
0000c0 7f ff 7d 7b 6d 6f 7e 7d 7d 7f 80 7f 7f 70 3d 6e
       127 255 125 123 109 111 126 125 125 127 128 127 127 112 61 110
0000d0 7f 7e 77 85 7e 79 7e 7c 80 7f 7f 7c 7e 7d 7e 86
       127 126 119 133 126 121 126 124 128 127 127 124 126 125 126 134
0000e0 7e 7d 7f 7f 6c 83 7f 89 81 80 7e 7f 7f 7b 79 5d
       126 125 127 127 108 131 127 137 129 128 126 127 127 123 121 93
0000f0 a0 77 7f 7b 7f 7d 7f 7c 7d 7e 8d 77 80 7d c1 73
       160 119 127 123 127 125 127 124 125 126 141 119 128 125 193 115

regression_headers.1.0.weight_quantized u1 [128, 1, 3, 3]
000000 57 5c 55 59 59 5a 59 56 5b 7f 86 68 a5 92 68 9e
       87 92 85 89 89 90 89 86 91 127 134 104 165 146 104 158
000010 9a 6f 55 5d 58 58 5b 59 59 5b 5a 53 56 58 59 55
       154 111 85 93 88 88 91 89 89 91 90 83 86 88 89 85
000020 55 54 59 56 86 c6 77 7d b3 7f 66 6b 73 4f 47 63
       85 84 89 86 134 198 119 125 179 127 102 107 115 79 71 99
000030 69 27 3e 91 f8 6e 5f 59 55 5a 58 56 5b 59 57 54
       105 39 62 145 248 110 95 89 85 90 88 86 91 89 87 84
000040 53 58 54 5c 61 55 62 62 52 62 63 4f 51 5c 5e 55
       83 88 84 92 97 85 98 98 82 98 99 79 81 92 94 85
000050 53 74 94 8d 83 8d 8e 7c 89 8c 59 55 57 5a 59 55
       83 116 148 141 131 141 142 124 137 140 89 85 87 90 89 85
000060 54 54 59 5b 56 5a 54 5c 5b 54 58 55 5d 5d 5d 5a
       84 84 89 91 86 90 84 92 91 84 88 85 93 93 93 90
000070 55 55 57 58 56 56 57 58 70 77 7c 82 ff b0 58 5a
       85 85 87 88 86 86 87 88 112 119 124 130 255 176 88 90
000080 59 5a 58 57 58 5c 56 75 9f 62 8e df 56 58 00 43
       89 90 88 87 88 92 86 117 159 98 142 223 86 88 0 67
000090 81 8d 69 ad 8c 5b aa 80 6c 78 84 77 89 90 7c 82
       129 141 105 173 140 91 170 128 108 120 132 119 137 144 124 130
0000a0 82 71 59 55 5c 57 57 5e 56 57 5f 59 56 5a 55 54
       130 113 89 85 92 87 87 94 86 87 95 89 86 90 85 84
0000b0 57 55 57 5b 67 61 55 42 7e 7e 52 91 3e 77 82 83
       87 85 87 91 103 97 85 66 126 126 82 145 62 119 130 131
0000c0 75 6b 65 85 77 68 58 5a 56 5a 54 5c 56 58 54 57
       117 107 101 133 119 104 88 90 86 90 84 92 86 88 84 87
0000d0 5c 5b 53 54 57 5a 59 54 56 54 56 54 5a 59 55 5c
       92 91 83 84 87 90 89 84 86 84 86 84 90 89 85 92
0000e0 55 56 5a 5d 57 56 55 55 59 5a 59 57 55 5c 5c 58
       85 86 90 93 87 86 85 85 89 90 89 87 85 92 92 88
0000f0 58 58 59 4e 69 8f 40 5f b8 3e 33 86 59 5b 55 59
       88 88 89 78 105 143 64 95 184 62 51 134 89 91 85 89
